stanza_models/orv_rnc_tokenizer.pt (torch_old, 642307 bytes, 21 tensors)

embeddings.weight f4 [182, 32]
000000 00 00 00 00 00 00 00 00 00 00 00 00 00 00 00 00
       0.0 0.0 0.0 0.0
000010 00 00 00 00 00 00 00 00 00 00 00 00 00 00 00 00
       0.0 0.0 0.0 0.0
000020 00 00 00 00 00 00 00 00 00 00 00 00 00 00 00 00
       0.0 0.0 0.0 0.0
000030 00 00 00 00 00 00 00 00 00 00 00 00 00 00 00 00
       0.0 0.0 0.0 0.0
000040 00 00 00 00 00 00 00 00 00 00 00 00 00 00 00 00
       0.0 0.0 0.0 0.0
000050 00 00 00 00 00 00 00 00 00 00 00 00 00 00 00 00
       0.0 0.0 0.0 0.0
000060 00 00 00 00 00 00 00 00 00 00 00 00 00 00 00 00
       0.0 0.0 0.0 0.0
000070 00 00 00 00 00 00 00 00 00 00 00 00 00 00 00 00
       0.0 0.0 0.0 0.0
000080 b1 21 d1 be 20 27 35 3e a9 13 ec be 09 06 e3 bd
       -0.40846017 0.17690706 -0.4610875 -0.110851355
000090 61 3d 2a bd f2 19 86 3c 63 e2 7d bf 8f 91 01 3e
       -0.04156244 0.016369794 -0.99173564 0.12653182
0000a0 5a c0 9e 3e dc 27 4a 3c a9 31 d0 bd 55 df 8e be
       0.31006128 0.012338605 -0.10165722 -0.27904764
0000b0 52 7c 15 3f 6e 40 3e be 3a 3a b6 3e d2 c1 90 3c
       0.5839282 -0.18579265 0.35591298 0.017670546
0000c0 e2 2b 3e 3f ec 11 98 3d b6 87 05 bf 1b 7d 3e bf
       0.7428571 0.07425293 -0.52160203 -0.74409646
0000d0 9c 5e ee be ae 58 1b 3e 80 ee 75 be 2e e7 12 3e
       -0.46556556 0.15170547 -0.24016762 0.14346
0000e0 ca d7 1a 3f 2d 28 21 3f 93 50 e5 3d dc 92 3b 3e
       0.6048552 0.6295193 0.11197009 0.18317741
0000f0 b6 01 f5 3d de e7 35 bf 66 e2 3f bf 83 12 28 3e
       0.11963217 -0.71056926 -0.7495483 0.16413312
000100 14 a0 ad 3f 9f 5b 92 3f 9d 1e 15 3f 22 c2 29 be
       1.3564477 1.143421 0.5824984 -0.16577962
000110 ce 18 7a 3f d6 86 bd bf 52 12 03 3f fc 53 79 3f
       0.976941 -1.4806774 0.5119983 0.97393775
000120 f4 87 2e 3c 10 32 6c be 50 6a 0b c0 94 cf a0 3f
       0.010652531 -0.23065972 -2.1783638 1.2563348
000130 ab 2f a0 3f 41 b6 9c 3e a2 6f 8d bf 5d ad 91 3f
       1.2514547 0.306078 -1.1049693 1.1381031
000140 1a 25 02 3f 6a 3b dd be 6f 34 8b bf e0 d3 b4 bf
       0.5083786 -0.43209392 -1.0875376 -1.4127159
000150 ac b9 4a 3f e4 80 39 3f 6a 94 aa be f7 b6 13 3e
       0.7918956 0.72462296 -0.33316356 0.14425264
000160 c4 c9 c6 3f 62 ec e2 bf cf 63 93 3d 63 d2 b4 bf
       1.5530324 -1.7728388 0.07196771 -1.4126705
000170 ea d7 3d 3f 5d 99 30 40 28 60 fe bf 28 2c c3 3e
       0.74157584 2.7593606 -1.9873095 0.38119626
000180 47 73 be 3e 0f cb a8 3f fb 45 6e bf c3 bb cd bd
       0.37197325 1.3186969 -0.9307553 -0.10045578
000190 2d ca 7b 3f f4 90 7c 3f 64 4e 4a bf dd 7d 05 bf
       0.9835537 0.9865868 -0.79025865 -0.5214518
0001a0 2f b9 7b bf df ac 90 be 3b 28 7c bf 09 38 32 3f
       -0.9832944 -0.2825689 -0.98498887 0.6961675
0001b0 a3 05 c0 3e d6 7e 0c bf 18 13 92 3e 03 6b 6d 3e
       0.375043 -0.54881036 0.28530192 0.23185353
0001c0 a8 ad 5b 3f 2d c7 38 bf b1 8e 14 40 a2 aa b8 3f
       0.85811853 -0.7217892 2.3212092 1.4427073
0001d0 c3 b3 21 bf 8b 18 ef be b8 d8 e7 3e 27 d7 ae 3f
       -0.6316492 -0.46698412 0.4528253 1.3659409
0001e0 10 7a 85 3e 24 c9 ec be e1 bc 14 be 29 d6 dc 3f
       0.2606969 -0.46247208 -0.14525177 1.7252856
0001f0 74 91 d0 3e db e8 e6 be c3 6c 3e 3f 5b 32 6a 3e
       0.40735972 -0.4509953 0.7438471 0.22870772
000200 84 1d 8e 3d fd 76 8b be a6 dc c1 bf 5b 0b 03 3f
       0.069392234 -0.27239218 -1.5145462 0.511892
000210 53 86 80 3f 41 eb 4f 3e 13 d4 a4 be 42 bf bf bf
       1.0040992 0.20304586 -0.3219305 -1.4980242
000220 ac 56 bd bf 0b f2 1e 3f 38 d9 83 be 93 06 6a bf
       -1.4792075 0.6208808 -0.25751662 -0.9141628
000230 c8 e4 75 3d 63 21 24 bf 6c 80 9b 3e 80 5c 3a 3e
       0.060032636 -0.64113444 0.30371416 0.18199348
000240 44 81 e0 be 2c 6a 3a bd 4f 1b ff 3e b9 04 bf bf
       -0.43848622 -0.04551141 0.49825522 -1.4923316
000250 9b 3c 9a bf c4 83 51 bf 66 23 39 3f d6 15 f1 3e
       -1.2049745 -0.81841683 0.7231964 0.47086972
000260 cc c6 a5 bf 71 62 88 bd 7e 34 5c 3f af 90 b5 bf
       -1.2951293 -0.06659401 0.86017597 -1.4184779
000270 90 f7 2e bf db ff 09 bf b9 6e 94 3d 99 72 d9 bf
       -0.683465 -0.5390603 0.07247681 -1.6988097
000280 4f 1f 50 be 1b b2 36 bf b9 dd b5 bf 6d 81 4c 3f
       -0.20324443 -0.7136552 -1.4208289 0.7988499
000290 9f 7a dc 3e 67 09 fd 3e f0 42 e0 3d b6 1d 1d 3e
       0.43062302 0.49421236 0.10950267 0.15343365
0002a0 d5 8e 00 c0 cf ed 3a bf c0 e3 c0 3f 06 cc ec 3e
       -2.0087178 -0.7301912 1.5069504 0.46249408
0002b0 94 50 2b be 75 25 2d bf ee 8b c5 be f8 c4 15 bf
       -0.16729957 -0.6763528 -0.3858332 -0.58503675
0002c0 44 8a 55 be 15 6e 67 bf 9f 3d cf 3e ba ae 5b bd
       -0.20853525 -0.90402347 0.404767 -0.05363343
0002d0 94 a2 df 3d b7 a5 3a bf 41 1c cb be 0a 44 75 3f
       0.10919681 -0.7290911 -0.39669994 0.95806944
0002e0 9b db ba 3e 2e 64 b2 3e 93 39 e0 bb d6 0e ab 3f
       0.3649567 0.34842056 -0.006842801 1.3363903
0002f0 91 5c ab 3d 28 62 b3 3f 66 19 ee be 4f d5 c1 3f
       0.08367265 1.401433 -0.46503752 1.5143222
000300 22 47 6e be 75 f8 2b 3f cb 32 10 bf a1 a7 b2 3f
       -0.23269323 0.6717599 -0.56327504 1.3957406
000310 b2 ac a8 3f e3 0e 32 3f c9 ea 0e 3e 60 7f 89 bf
       1.3177702 0.69553965 0.13956751 -1.0741997
000320 08 f8 0a 3f a4 a9 04 bf f1 32 cd 3f 05 2d ae bf
       0.54284716 -0.5182135 1.6031171 -1.3607489
000330 a1 4f 37 be 05 9e 92 bf 5c ad 83 bf db e2 f0 bf
       -0.1790147 -1.1454474 -1.028728 -1.8819231
000340 dd 88 a2 3e 0c 9a 4d bf 00 f7 00 bf 36 0f 0b bf
       0.31745043 -0.8031318 -0.5037689 -0.54320085
000350 00 66 89 bf e9 2e eb 3e ac 41 fe 3d fa 5a ef 3e
       -1.0734253 0.45934227 0.1241487 0.46749097
000360 66 b3 27 3e 9d 31 87 be e4 f2 b7 3f 29 3e 50 be
       0.16377029 -0.2640504 1.4370999 -0.20336212
000370 9c df 35 3f fa 33 82 3f e0 11 4d 3d 68 f5 b8 bd
       0.71044326 1.0172112 0.050065875 -0.090311825
000380 7a 15 5c be 75 10 6b 3e 06 eb 55 bf b7 48 42 40
       -0.21492568 0.22955497 -0.8356174 3.0356882
000390 50 94 01 bf 3d 57 de be ed a7 68 3f 9e 71 9c be
       -0.5061693 -0.43425933 0.90881234 -0.30555433
0003a0 c2 95 97 be 1f 57 1d c0 a0 77 b3 bf 1e ae 51 3f
       -0.29606444 -2.4584424 -1.4020882 0.81906307
0003b0 6d 13 65 3e bd eb 41 be 89 03 fa be 53 5c 85 3e
       0.22370692 -0.18937583 -0.48830822 0.26047
0003c0 a5 54 3d be bc 71 46 3e e2 27 38 be 35 53 be 3e
       -0.1848932 0.19379324 -0.17983964 0.37172857
0003d0 00 bb 11 3f d4 f1 36 3f fa 64 6a bf cd 80 01 bf
       0.56925964 0.7146275 -0.9156033 -0.5058716
0003e0 fe 58 42 bf 2f 18 84 3e f9 18 5a bf f8 56 fa 3e
       -0.7591704 0.257997 -0.85194355 0.48894477
0003f0 05 ca 82 bf d7 34 2a 3c 78 97 a7 3f 4b c4 1e bf
       -1.0217901 0.010388575 1.30931 -0.6201827

rnn.weight_ih_l0 f4 [256, 37]
000000 1d e4 6f 3e c2 cb b3 3e d4 a2 df 3c 1e 8e f1 3d
       0.23426862 0.35116392 0.027299322 0.11794685
000010 71 83 57 bd fb d9 b2 be fb 18 be bd 8f 25 2c be
       -0.052615587 -0.3493193 -0.092821084 -0.16811202
000020 28 51 b9 3b c4 df 1f 3f 74 5e 45 be 42 97 9d be
       0.0056554265 0.62450814 -0.19274312 -0.30779463
000030 6d d5 82 bd 4b e2 e8 be 18 14 3d be d9 4c a3 3d
       -0.06388364 -0.45485148 -0.18464696 0.07973642
000040 bc f5 0e 3e 43 11 54 3d 5f 3f 45 3e 04 b6 26 3e
       0.13960928 0.051774275 0.19262455 0.16280371
000050 2e c5 22 be d3 09 59 bd 3e 8c 8a 3d 35 16 9f 3e
       -0.1589553 -0.052987885 0.0676503 0.3107163
000060 6f d3 b1 bd c0 58 af 3b 39 1f a4 3e 5c 2e 99 be
       -0.08682906 0.005351156 0.3205507 -0.29918182
000070 6d 9b 0c bd e6 87 10 3e 62 9b d4 3b 36 fa 06 be
       -0.034327913 0.14114341 0.0064882496 -0.13181385
000080 30 ed 47 3f 26 80 26 bf 0a e5 d0 be e2 eb cd 3e
       0.78096294 -0.6503929 -0.40799743 0.40219027
000090 41 77 78 be 9d 12 10 bd 73 9f 19 be 30 a7 8d 3d
       -0.24264242 -0.035174 -0.15002231 0.06916654
0000a0 68 c6 e4 bc 2f 6c 1e bd e5 13 4c bd a7 29 3a bd
       -0.027926639 -0.03867739 -0.04982366 -0.04544988
0000b0 39 86 82 3e 4f 80 00 3e fd 9e fa 3d 00 7d 07 bd
       0.2549303 0.12548946 0.12237356 -0.033078194
0000c0 8b fe 7c 3e c0 84 8b bd e2 b3 4e 3e 01 6c 85 3d
       0.24706475 -0.068124294 0.20185807 0.06514741
0000d0 c8 aa 0c 3e 4f 32 93 bd 77 6a 08 3e a1 a1 3d bd
       0.13737023 -0.0718733 0.13321863 -0.04629672
0000e0 39 32 81 3d eb 0f c8 3d da 5d 60 3e 98 8e 4a bd
       0.06308407 0.09768661 0.21910802 -0.049452394
0000f0 17 21 9c be 02 e6 62 3d 94 6e ac bd 83 6d 1a bd
       -0.30493996 0.055395134 -0.084195286 -0.037702095
000100 b7 f2 7c bd e2 88 29 be 55 1a a5 bd b1 9a 42 be
       -0.06175491 -0.16556123 -0.08061663 -0.19004323
000110 ae 30 95 3e 33 71 82 3f 14 35 04 3f df 13 9b 3f
       0.29138702 1.0190796 0.5164349 1.2115439
000120 01 ad 2e 3f c2 99 38 3f 27 85 6d be 5b 0f 2d be
       0.68232733 0.72109616 -0.23195325 -0.16900389
000130 5b 48 05 3f 65 d7 66 be 44 50 38 be 31 ca 48 bc
       0.5206353 -0.22543104 -0.17999369 -0.012255237
000140 23 2d 02 3e 86 25 9a 3e e6 6a c1 3e 11 23 c2 3d
       0.12712531 0.30106753 0.3777687 0.09479345
000150 8b c8 b1 3d d9 29 52 bd c7 80 e1 bd 0f 8d a9 3c
       0.08680829 -0.05130944 -0.110108905 0.020697145
000160 2e 76 4d 3e 59 2e 6a be 66 8a 56 bd b6 2a 56 3d
       0.20064613 -0.22869243 -0.05237808 0.052286826
000170 da 2d 10 3e b9 cc e8 3d 4d 0a 99 bd be 23 39 be
       0.14079991 0.11367173 -0.07472668 -0.18080041
000180 7b 5d d8 3e 0b 08 ce be 33 77 12 be be ca 06 be
       0.4225882 -0.4024051 -0.14303283 -0.13163278
000190 39 3f 11 3e 96 ff f4 be 6c d0 26 be bf 75 44 be
       0.14184274 -0.47851247 -0.16290444 -0.19185542
0001a0 3d b6 b7 3e a7 c5 3b 3b 6b 22 af be 87 70 f5 3e
       0.35881224 0.0028651746 -0.34205946 0.47937414
0001b0 e1 bb 00 be 03 fe 52 3f 2a 44 4b 3f 96 f5 31 3c
       -0.1257167 0.8241884 0.79400885 0.010861775
0001c0 34 d0 c2 bc 4e 5b 24 bd 77 ad fd 3d ff ae a0 bc
       -0.02378092 -0.040126137 0.123866014 -0.019614695
0001d0 d4 9a 79 be e3 23 40 3e ca 18 55 be 23 24 9f be
       -0.24375468 0.1876369 -0.20810238 -0.31082258
0001e0 87 11 7f be 14 bc 63 bc d5 d6 d7 3c ce f5 68 be
       -0.2490903 -0.013899822 0.026347557 -0.22750017
0001f0 16 e7 39 bd 01 5c 67 be bf 9d cf 3c 90 20 43 be
       -0.045386396 -0.2259369 0.025343774 -0.1905539
000200 de f0 9a be ea 28 78 3e 54 e1 35 3e c2 6f 65 3e
       -0.30261892 0.24234357 0.17761737 0.22405913
000210 99 71 97 bd b3 19 da 3d af a8 56 3e 7f 80 ae be
       -0.07394714 0.10649433 0.20962785 -0.3408241
000220 6e 47 63 be 70 53 5e bd 40 06 be 3b a5 70 58 bb
       -0.22195217 -0.05427879 0.005799085 -0.0033026126
000230 6a 00 72 3e 55 a5 be 3e c8 94 62 be d0 4a a0 3f
       0.2363297 0.37235513 -0.22127068 1.2522831
000240 62 34 16 bf dc fe dc bf 08 fe 0a 3f e8 d7 2d be
       -0.5867368 -1.7265277 0.5429387 -0.16976893
000250 49 65 99 3d 3c be eb bd 1b 56 e0 3d 81 13 fb 3c
       0.07490022 -0.11510894 0.10953923 0.030648949
000260 00 6d 12 3e f7 62 45 be 75 e0 36 3d c8 4a 67 3e
       0.14299393 -0.19276033 0.044647653 0.2258712
000270 08 fb 97 3e 92 7b 31 be 57 0d 25 be 1d f6 89 be
       0.2968371 -0.17332295 -0.1611837 -0.26945582
000280 c4 ac 94 3e 5a 79 87 3d a8 dc 15 3e d4 b2 04 3e
       0.2903806 0.06614943 0.14634955 0.12958843
000290 79 eb b6 3e 4b 97 d3 bd de 1f 83 bc 01 0c ef 3d
       0.35726526 -0.10331591 -0.016006406 0.116722114
0002a0 c7 9a 9c bd a2 81 33 bd 9e 2b 22 be 25 df 38 be
       -0.07646709 -0.0438248 -0.15836951 -0.18053873
0002b0 0e df aa 3e 93 1f c9 bd 3b 9d 3d bd e9 9d 0c be
       0.33373302 -0.098204754 -0.046292525 -0.13732113
0002c0 36 a5 0c be 37 e0 99 bd 7e ff b2 be e9 d3 d4 3d
       -0.13734898 -0.07513469 -0.3496055 0.10391981
0002d0 ef 7c 81 3c 64 f5 68 3e 99 92 8f 3e 7f b2 5f be
       0.015806643 0.22749859 0.28041533 -0.21845435
0002e0 12 3b 12 3f a6 ed 03 be 8c 23 ed bc 48 21 b1 3d
       0.57121384 -0.12883624 -0.028947614 0.08648926
0002f0 1d 5f 8b be 3a a8 be bc 6d 8a a1 3e 82 22 a8 3d
       -0.27221003 -0.023273576 0.31550923 0.08209707
000300 90 0d 43 3d 8b 82 9a bb 86 a5 2f bd 01 a5 13 be
       0.047620356 -0.004715269 -0.042882465 -0.14418413
000310 9a 70 07 bc 2b 7a 69 be 7b aa e7 bd d3 86 38 3e
       -0.008266592 -0.2280051 -0.113118134 0.18020181
000320 78 1a 66 be b5 c0 1e be c1 f0 89 bd 83 97 32 bc
       -0.22471035 -0.155032 -0.06735373 -0.010900381
000330 3e e5 6d 3c 60 ff 98 bd 80 c2 3d bc c0 a6 29 bd
       0.014519988 -0.07470584 -0.011582017 -0.04141879
000340 56 50 c5 bd 71 7c 16 3d 2b cb 1d 3d 05 ec 44 3e
       -0.096344635 0.03673977 0.038523834 0.1923066
000350 aa fc 20 3e 4e 04 a5 3e 13 7e 0d 3e 19 a4 eb bd
       0.15721384 0.32229847 0.13817625 -0.115059085
000360 59 af b2 3e a5 46 c5 3f 07 5c 8f 3f dd 39 47 3f
       0.34899405 1.5412184 1.119996 0.7782267
000370 ad a4 0a 3f 53 69 17 3f 8c 64 21 3e 84 5e 63 3c
       0.54157525 0.59145087 0.15761012 0.013877515
000380 78 37 c9 3d 69 fd 40 be 67 be 17 3e 34 ab be bd
       0.09825033 -0.18846668 0.14818726 -0.09309998
000390 ee 68 8d bd e4 c7 49 3e 89 3d 0d be 77 1c 0c be
       -0.069047794 0.19705158 -0.13793005 -0.13682733
0003a0 be fb f1 3c 44 58 83 3e a5 4f 06 3c 56 55 ed bc
       0.029538985 0.2565328 0.0081977 -0.028971355
0003b0 98 cd a1 3d 82 d0 86 3e f9 e2 00 3e fd 65 e3 3d
       0.07900542 0.26330954 0.12586583 0.11103437
0003c0 e6 a1 59 3e 7e e1 36 3e 24 97 1c 3d 41 01 4a 3e
       0.21253166 0.17859456 0.038230076 0.19727041
0003d0 e4 f7 0b be d0 0a 69 3e bc b2 16 3e bb 10 3f be
       -0.13668782 0.22758031 0.14716619 -0.18658726
0003e0 59 75 e3 be 0e 94 24 3e 0b d1 c6 bd da 02 bd 3d
       -0.44425467 0.16072103 -0.097078405 0.092290595
0003f0 fb 28 69 3c 15 df 8f bd 47 dc ea 3e 71 98 01 3f
       0.014230962 -0.070249714 0.45871183 0.5062323

rnn.weight_hh_l0 f4 [256, 64]
000000 a7 4d a8 3c 23 3f 89 bd 61 16 d7 be dc db 21 3d
       0.02054484 -0.067014955 -0.4200926 0.039516315
000010 b5 1e c0 be 52 01 b7 3e d9 0e d1 3d f0 ac 20 bd
       -0.37523428 0.35743195 0.1020791 -0.039227426
000020 a8 2e 39 bc 26 21 0b 3e a5 1c c4 bd 4f 9a a2 bc
       -0.011302628 0.13586864 -0.09575776 -0.01984897
000030 9f 79 b8 be c5 ce b9 3c ed 20 62 3e eb d0 33 3d
       -0.3603029 0.022681603 0.22082873 0.04390041
000040 18 47 7c be 98 95 a8 3e 8e c6 25 be ba 18 71 3e
       -0.24636495 0.3292663 -0.16189024 0.23544589
000050 69 c0 3e 3f eb 8a 3e 3e 42 b4 2b 3e 9b 20 54 bd
       0.74512345 0.1860768 0.16767982 -0.051788907
000060 53 43 4e be be 2d f8 be 49 f8 16 3e 75 26 cc be
       -0.2014287 -0.484724 0.14743151 -0.3987309
000070 b6 c3 b3 3d 2e b9 21 bd 26 8a a8 bd 3c 23 be 3e
       0.08777563 -0.03948324 -0.08229475 0.37136257
000080 d6 cd d8 3e 06 06 2e be 81 e0 16 3e de 2e 81 bc
       0.4234454 -0.16994485 0.14734079 -0.015769418
000090 9c 97 4c 3e 2d 0d 5b 3d dd 84 85 3e 59 f6 33 3e
       0.1997971 0.053479362 0.2607793 0.17574443
0000a0 52 d3 a6 3d 1d a0 bb 3e 30 97 d9 3e de b1 cc be
       0.08145775 0.36645594 0.4249816 -0.39979452
0000b0 01 0e e0 3d 1f 16 cb bd dc ff 02 3f 3e ed 62 be
       0.10940171 -0.09916329 0.5117166 -0.22160813
0000c0 01 97 8b 3e 81 31 70 3e a0 91 81 3d 4c 6e 03 3a
       0.27263644 0.23456384 0.06326604 0.0005013689
0000d0 79 8e 09 3e 92 b9 b2 be 12 ab 98 bd 4c 6c 4b be
       0.13433255 -0.34907204 -0.07454504 -0.1986553
0000e0 99 29 0f 3e c1 bb 8c 3e 2f 4c e0 3d df 81 31 3e
       0.13980712 0.27486995 0.10952031 0.17334698
0000f0 15 67 c3 3b 76 80 2d be 6e 58 ec 3c 56 bd c3 bd
       0.005963216 -0.16943535 0.02885076 -0.09557597
000100 9f a7 31 3e f0 e1 40 be f5 8d 60 be a0 38 0c 3f
       0.17349099 -0.18836188 -0.21929152 0.547739
000110 86 3f 8e bd 0c b3 b5 3e dd c4 d2 3e 4b e9 a1 be
       -0.0694571 0.35488164 0.4116582 -0.316233
000120 c9 1b 04 be d5 a9 ec 3c a8 f9 ab bd 8a 7a 09 3f
       -0.12901224 0.028889576 -0.083972275 0.53702605
000130 ac 1d 35 3e 62 9a 97 3e a7 51 04 3d 09 72 92 bd
       0.176871 0.29609972 0.032304432 -0.07150657
000140 d8 20 1d 3d 45 70 4d be f1 78 cd be f8 ac 5f 3e
       0.0383614 -0.20062359 -0.40131333 0.21843326
000150 82 7e d1 3d 89 47 49 be a9 0e 0f 3e da 4c ad be
       0.102292076 -0.19656195 0.13970436 -0.33847696
000160 9a 65 d5 3e 55 ad 9c 3d b4 a4 0c 3e 16 02 24 3e
       0.41679078 0.07650248 0.13734704 0.1601642
000170 43 b0 82 3e 2a b7 4f 3e 58 e1 88 3e 57 6a 90 be
       0.25525102 0.20284715 0.26734424 -0.2820613
000180 1d 3a 6b be 5e 1a 3f 3e 61 71 15 be 86 02 18 3e
       -0.22971387 0.18662402 -0.14594032 0.14844713
000190 36 a1 5d 3d e6 f2 62 3c 76 a3 5f 3e f6 90 d2 3d
       0.05410882 0.013851857 0.21839699 0.10281555
0001a0 0a 13 12 be 3f 84 cb bc 15 d0 d3 3d e7 9a df 3d
       -0.14265075 -0.024843333 0.10342423 0.10918217
0001b0 9f 9e 7e be 00 37 39 3d c2 80 22 3e ef 39 f1 be
       -0.24865197 0.045218468 0.1586943 -0.47114512
0001c0 95 7e 31 3d 51 2e 2c be 93 65 a1 be f4 85 24 3e
       0.04333361 -0.16814543 -0.31522807 0.16066724
0001d0 57 3b a5 3d 60 ed 8a 3c b3 0e a9 bd 4a 3b 3d bd
       0.08067959 0.016958892 -0.08254757 -0.04619912
0001e0 2a 94 03 3e 72 4f c2 bd 6a b3 5b bd 19 19 e0 3c
       0.12849489 -0.09487809 -0.0536379 0.027355717
0001f0 e6 2c d8 bd 7d 10 65 3e 89 12 ab 3e 75 ba cf 3c
       -0.10555439 0.22369571 0.3341258 0.025357464
000200 8f 3a aa bd ab 10 75 3e 41 60 0a 3c 17 be 79 3e
       -0.083119504 0.2393214 0.0084458 0.2438892
000210 d0 06 db bd ca 33 3b be ce 56 c3 bd 99 86 ab be
       -0.10694659 -0.18281475 -0.09538041 -0.33501127
000220 0e e1 ea bd 99 22 9d 3c 80 52 12 be 1b a0 2f 3e
       -0.11468707 0.019181537 -0.14289284 0.17150919
000230 f4 58 a7 3d 4e e5 5b 3d 57 e4 01 be 4c 12 7b bc
       0.08171263 0.05368548 -0.12684761 -0.0153241865
000240 36 1f 7e be 8e 34 80 3e 36 14 2f be 99 5e 6c 3e
       -0.24816594 0.25040096 -0.17097554 0.23082961
000250 ed 2b b6 3d 9a 05 71 bd 4b 64 8b 3d b8 57 20 bc
       0.08895097 -0.058843233 0.06806239 -0.009786539
000260 b2 88 db bd cd 69 79 bc fa c1 a7 3d 56 4b 5e 3e
       -0.10719432 -0.015222979 0.08191295 0.21708426
000270 d8 d7 9a bd b6 81 c5 3e 77 7d ed 3d b2 41 65 be
       -0.075607 0.38575524 0.11596196 -0.22388342
000280 ed ac 67 bc ca e2 95 be c6 7c 94 bc 62 8d 0f bd
       -0.01414035 -0.2927459 -0.018125903 -0.035046943
000290 ef fc d3 bd 90 a6 41 be 99 14 d7 bd cd a7 ec 3d
       -0.10350978 -0.18911195 -0.105019756 0.11555443
0002a0 2f 15 e0 3d e7 6a 43 3e 9c 33 57 3e 96 b5 9f 3c
       0.109415404 0.19083749 0.21015781 0.019495767
0002b0 60 bc 8f bd 39 49 0a be bb 79 1a 3d 65 3b 2a be
       -0.070183516 -0.13504495 0.037713747 -0.1662422
0002c0 e1 cb fc bd a9 57 9c bd e4 e3 0d 3e 21 ac 3c be
       -0.12343574 -0.07633907 0.13856465 -0.18425037
0002d0 d2 fa b4 3d ab d4 08 bd db 62 6b bd a3 8d 3c be
       0.08836903 -0.03340594 -0.057467323 -0.18413405
0002e0 7a a9 4c bc 75 9b eb 3e bb d7 8f 3d 3c 92 08 bd
       -0.012491578 0.46017042 0.07023569 -0.033342585
0002f0 e6 c0 a9 3d 24 47 4e 3e e1 57 50 3e ab a2 62 3e
       0.082887456 0.20144325 0.20346023 0.22132365
000300 71 73 9a be 08 0e b1 be 4b 07 73 be 6c 82 9a be
       -0.301662 -0.34581017 -0.23733251 -0.3017763
000310 8f f2 ba be 8d 4a 96 3e a3 98 30 3e fe 08 e9 3d
       -0.36513183 0.29353753 0.17245726 0.11378668
000320 bf 0e 0b 3e 7d 6a d2 bd 8f 5b 56 bd c6 09 94 be
       0.13579844 -0.10274217 -0.05233341 -0.28913707
000330 4d d5 cb be 69 83 1c be 7d 01 aa 3e 6b 07 d7 3e
       -0.39811173 -0.15284504 0.3320426 0.41997847
000340 a9 c8 af 3c a0 65 16 be 84 23 e3 3e 5b b3 5f be
       0.021457987 -0.14687204 0.44363034 -0.21845762
000350 39 41 7f 3e 7b a9 94 3e d8 6b 09 3e 97 3d 89 3e
       0.24927224 0.29035553 0.13420045 0.26804802
000360 e4 75 4d 3c 8a 05 2b be 1d c7 92 3e ef 86 0d be
       0.012540314 -0.16701332 0.28667536 -0.13821004
000370 ec 4e 2e 3e 1e 82 ae 3e e2 a1 63 3e 29 5a 51 bc
       0.17022294 0.34083647 0.22229722 -0.0127778435
000380 72 57 c3 bd 5a 74 b6 be c5 09 a8 be 8e bf 3d 3e
       -0.09538163 -0.35635644 -0.32819954 0.18530104
000390 72 91 b9 3d 59 cd 9e bd 51 7d f0 bd 07 9e 58 3e
       0.090609446 -0.07754011 -0.11742652 0.21154033
0003a0 b8 cf 00 3d b2 4e c3 3e 96 99 3f 3b 48 c1 04 bf
       0.031448096 0.38145977 0.0029235831 -0.51857424
0003b0 4d fe fc be 13 10 37 3d 52 bf 02 3f 96 2a 9d bd
       -0.49412766 0.044693064 0.5107318 -0.07674138
0003c0 d7 16 99 3e 43 1d 2d be 3b 4e e4 3d da 8d 6e 3e
       0.29900238 -0.16905694 0.11147734 0.232963
0003d0 65 a1 98 3e 37 9f 56 3e e7 27 bf bd f6 ba d2 3d
       0.29810634 0.20959173 -0.09333783 0.10289566
0003e0 d3 35 4a 3e 89 5d ce 3e 05 c8 94 3e 41 9e 4d 3e
       0.19747095 0.40305737 0.29058853 0.200799
0003f0 e0 f4 bb bc 77 af 9b be 62 76 d5 3d d1 0f a0 3d
       -0.022943914 -0.30407307 0.1042297 0.07815517

rnn.bias_ih_l0 f4 [256]
000000 53 ea a2 3d 35 7e 2f 3e 8b fa 35 bd 61 14 37 3d
       0.0795485 0.17137988 -0.04442839 0.04469717
000010 c6 db 90 3d ef fd 2f 3d 20 1e ce 3d cc 3d 0e be
       0.070731685 0.04296678 0.1006434 -0.13890761
000020 b7 db 42 3e fe 12 7d 3d 00 28 78 bd ef 2b 5b 3e
       0.19029127 0.06178569 -0.060585022 0.21403478
000030 0c bf 24 be 0f c2 3a 3e 92 cc a4 3d a1 5c c0 3d
       -0.16088504 0.1823809 0.08046831 0.093926676
000040 01 9a 28 3e d8 a3 55 3e 4e 2d 49 3d 63 41 40 3e
       0.16464998 0.20863283 0.04911547 0.18774943
000050 5a 54 bc bd db 33 31 3e fd ce a2 3d 43 8e 60 bd
       -0.09195776 0.17304938 0.07949636 -0.05482317
000060 df 14 61 3e 00 ac 19 bd b9 17 6d 3e 80 ce ca 3d
       0.21980618 -0.037517548 0.2315358 0.09902668
000070 df 4b a0 3d f6 f9 d0 3d ee fe aa 3d 02 d5 bf 3e
       0.07826971 0.10203926 0.08349405 0.374672
000080 98 1f 01 3e 6c 32 ff 3d e6 00 c2 3d e9 04 2c 3e
       0.12609708 0.12460789 0.094728276 0.16798748
000090 6e 83 32 3e ef 20 28 3e db 92 e1 3e 68 cc 1b 3e
       0.17432949 0.16418813 0.44057354 0.15214694
0000a0 1b 3a 4c 3e e1 ae 0c 3e 33 d0 55 3d e4 ab 5b 3e
       0.1994404 0.13738586 0.052200507 0.2145229
0000b0 d7 a4 50 3e e4 7d f9 3d 3d d5 e7 3d 09 36 08 3e
       0.20375381 0.12182215 0.11319969 0.13301863
0000c0 5a 97 c3 3d 2b c9 15 3e 6d 87 55 3e 6a a6 e9 bb
       0.095503524 0.1462752 0.20852442 -0.007130434
0000d0 6b 61 62 3e 21 ab f8 3e 32 ac 80 3e 8b 54 ae 3e
       0.22107475 0.4856806 0.25131375 0.34048876
0000e0 00 05 bb 3d 5c 5a dc 3d c8 c8 8a 3e 80 b5 ae 3c
       0.09131813 0.10759422 0.2710631 0.02132678
0000f0 5b 57 4b 3e 5b 6f fb 3d db e9 89 3d 26 fb 95 3e
       0.19857542 0.12277099 0.067340575 0.29293174
000100 59 75 13 be db a5 77 bd 33 bf a2 3d 52 65 41 be
       -0.14400233 -0.060460906 0.079466246 -0.18886307
000110 ec 8b ba 3d 16 d2 33 be 48 09 a9 bd 25 c8 bd 3d
       0.09108719 -0.1756061 -0.082537234 0.0926669
000120 e9 73 4f bd c9 64 66 3c 9d 55 06 be 7d 1a 63 be
       -0.05064765 0.014062115 -0.13118596 -0.22178073
000130 02 17 ce bc 79 65 e3 3d 50 a9 87 be 23 96 14 bd
       -0.025157455 0.11103339 -0.26496363 -0.036275994
000140 ff b7 b0 3d e4 42 06 3d 1d a6 8c be 1a 4f 88 be
       0.086288445 0.032778636 -0.27470484 -0.2662285
000150 83 f3 c1 be 46 73 21 bb 43 cf c6 bb 84 c6 2e be
       -0.37881097 -0.0024635359 -0.006067188 -0.17067915
000160 90 14 a9 3d ff 59 dc 3c 12 ae 2c bd 9a 1a 27 be
       0.08255875 0.026898382 -0.042158194 -0.16318741
000170 b3 27 f4 3b df 68 40 bc 50 4d 0a be 52 69 0b bd
       0.0074510216 -0.011743753 -0.13506055 -0.03403599
000180 35 8e 2f 3e dd 92 ed bd 9d 3f 95 ba 50 dd b8 3e
       0.17144091 -0.116002776 -0.0011386756 0.36106348
000190 d3 f8 83 3c bf a8 ef 3d 22 43 46 3e 40 48 8d be
       0.01610986 0.11702108 0.19361547 -0.27594185
0001a0 ef eb 0b 3e 02 b9 01 bd 09 28 d8 bd f6 db 31 be
       0.1366422 -0.031670578 -0.10554511 -0.17369065
0001b0 d1 71 84 bb ba 62 fd 3d 44 b4 24 be 02 15 d4 be
       -0.0040418883 0.12372346 -0.16084391 -0.41422278
0001c0 fe 52 a4 bd 1d f7 01 3c 05 00 ad bd 35 e7 eb 3b
       -0.08023642 0.007932452 -0.08447269 0.007199193
0001d0 f0 1e 55 be dd bf 66 bd 4d 16 c2 be 0f d9 bd bd
       -0.20812583 -0.05633532 -0.3790764 -0.09269916
0001e0 2c 03 10 bd 7e b3 40 be b8 8a b6 be f3 43 36 bc
       -0.035159275 -0.18818471 -0.3565271 -0.011124599
0001f0 a0 94 9d bd e7 2f ca be 7e e8 60 3c 39 6c b3 bc
       -0.076943636 -0.39489672 0.013727305 -0.02190219
000200 50 1b 18 3d f1 ad b5 3c 0f 35 44 be 4d 5e 45 be
       0.037135422 0.022177668 -0.19160865 -0.19274254
000210 e2 3c 6b 3d 1e 90 8d bd 7f 50 9b 3d 11 4c 92 3e
       0.05743111 -0.06912254 0.07583713 0.2857366
000220 4c 33 84 bd 41 ca b0 ba af 5d 56 3e 10 ba 62 3e
       -0.064550966 -0.0013488011 0.20934175 0.2214129
000230 ed ff 0b 3d 94 e0 a3 be 51 b0 05 be d5 9e db bd
       0.034179617 -0.32007277 -0.1305554 -0.10723654
000240 1b 58 80 bd fe 46 36 bc 1a fb 81 bb dc b0 e6 bd
       -0.06266805 -0.011125324 -0.003966701 -0.11264202
000250 a0 73 15 3e 3d f6 55 bd b6 98 82 3d d7 64 be 3d
       0.14594889 -0.052236784 0.063767835 0.092965774
000260 a7 b6 af bd 99 15 b8 bd 6f 47 d3 3d a8 08 91 bd
       -0.0857976 -0.089884944 0.10316359 -0.07081729
000270 f7 37 cb bb 7c 62 45 bd d4 ee 7b be 12 9b c0 3c
       -0.00620174 -0.048189625 -0.24602824 0.023511443
000280 23 25 27 bd 95 55 f7 b9 e2 43 39 3d 7b 61 ae 3d
       -0.0408069 -0.00047175275 0.045230754 0.08514687
000290 4b a3 2d 3e 18 2b b9 bd 62 06 7f be a5 30 e4 bb
       0.16956823 -0.090414226 -0.24904779 -0.0069638067
0002a0 8f 2b 51 3d 22 a2 32 bb d2 70 07 3e eb 2d 6b bd
       0.05106693 -0.0027257283 0.13226631 -0.057416838
0002b0 a7 ba a7 bc 58 db 0f 3e 17 40 d9 bd 81 fd e9 bd
       -0.020474745 0.14048517 -0.10607927 -0.11425305
0002c0 da f9 2f bd 46 10 6a 3d f0 94 75 3d 10 da f5 3d
       -0.042962886 0.057144426 0.05995649 0.12004483
0002d0 94 4c b9 bd 1f a9 8d bd 6c 1f ca 3c 46 b2 c1 bc
       -0.09047809 -0.06917023 0.024673186 -0.023644578
0002e0 b1 e0 e6 3a f7 95 6e bc 03 98 00 3e 77 be 33 bd
       0.0017614571 -0.014562122 0.12557988 -0.043882813
0002f0 5e 77 ea bd 3c fa 39 bd 07 94 d4 3d 32 50 9a bd
       -0.11448549 -0.045404658 0.103797965 -0.07534827
000300 61 8c a0 3c d4 3e cf 3e 65 06 89 3c 36 b9 32 bd
       0.019598188 0.40477622 0.016726682 -0.043633662
000310 25 96 18 3b 00 4d 1a 3e 84 e5 e0 3d d3 00 9b 3c
       0.0023282852 0.15068436 0.10981277 0.018921291
000320 1b af 09 3e 01 02 3a bd 89 25 1d 3c c8 38 28 3e
       0.13445704 -0.045412067 0.009591469 0.1642791
000330 d9 22 05 be 41 24 90 bd 6e 08 b7 3b db 81 83 3e
       -0.13001575 -0.07038165 0.0055857217 0.2568501
000340 df a6 5b 3e 4b c8 be bc e4 f3 48 3e 75 c2 7a 3e
       0.21450375 -0.023288867 0.19624287 0.24488242
000350 70 c3 af bb b2 90 a8 bc 75 6e bf bc 2e 7c db 3d
       -0.005363874 -0.020576809 -0.0233681 0.10717045
000360 fa b3 2e 3e d2 6e 83 3e a9 55 54 3e c2 f4 16 3e
       0.17060843 0.25670487 0.20735802 0.14741805
000370 8d 9c 83 3e ee 60 00 3e 91 6a 8f 3d 1d b4 87 3e
       0.25705376 0.12536976 0.07002748 0.26504603
000380 18 d1 91 3e 50 c6 79 3e 04 63 87 3d 28 1e 05 3e
       0.28479838 0.24392056 0.066106826 0.12999785
000390 b1 5a 89 3c 4d 74 41 3e f3 bb 46 3d 3b 5a 23 3c
       0.016766878 0.18892021 0.048519086 0.009970243
0003a0 fb 72 fa 3d da 58 52 3c c5 f1 0e 3e 50 ea c4 3d
       0.12228962 0.012838567 0.13959415 0.09615004
0003b0 9a 50 85 3e 2b 1e a9 bd bc 6b df 3e d4 84 09 3d
       0.26038057 -0.08257707 0.43636882 0.03357394
0003c0 35 6d 2c 3e 6b bb e5 3d af 61 dd 3d da be 01 3e
       0.16838534 0.11217388 0.10809647 0.1267046
0003d0 d9 5f c1 3e 70 42 f8 3e 2e 3d 68 3e a9 3d ce bb
       0.37768438 0.48488188 0.22679588 -0.0062939716
0003e0 fa fa 3f 3e a1 2a 51 3e 42 8f 56 3e 14 94 b0 3d
       0.18748084 0.20426418 0.20953086 0.08621994
0003f0 f1 e8 74 3e fe ca 62 3e 68 38 d4 bc 64 5e 4c 3e
       0.23916985 0.22147748 -0.025905803 0.19957882

rnn.bias_hh_l0 f4 [256]
000000 fd ff 82 3d d5 75 60 3e 9f 8b ae bd 01 d8 78 3d
       0.06396482 0.2191995 -0.08522724 0.060752872
000010 f7 30 b6 3d 4e e9 29 3e b0 b5 bf 3d 10 6f 98 bd
       0.08896058 0.16592905 0.09360826 -0.074430585
000020 90 b5 b7 3d ed 23 bc 3d 31 e0 45 be 4f 0d ff 3c
       0.08970177 0.0918654 -0.19323803 0.031134276
000030 b0 d6 2b 3d 0c 8c 25 3d c6 0b 6c 3b 69 45 62 3d
       0.04195279 0.040416762 0.003601776 0.055241976
000040 e9 84 13 3e cd e1 49 3e 95 cc 61 3e 49 c4 2c 3e
       0.1440617 0.19715042 0.22050698 0.16871752
000050 32 5b df bd 55 b6 d9 3c b1 3a ca 3c 40 a6 24 3e
       -0.10906066 0.0265762 0.02468619 0.16079044
000060 9f 19 45 3e 67 22 94 bd 81 c8 35 3e df af 80 3d
       0.19248055 -0.07233124 0.17752267 0.06283545
000070 92 6d eb bd fc 2b 42 3e 88 6d 5e 3e ab 38 87 3e
       -0.11495508 0.18962091 0.2172147 0.26410422
000080 17 61 78 3e c6 da 53 3e b6 f3 75 3e 37 3b 79 3e
       0.24255787 0.20688924 0.2401875 0.24338995
000090 b9 0c 7e 3d 11 a1 9b 3e 03 df bc 3e f9 f0 ae 3d
       0.062023852 0.3039632 0.36888894 0.08542056
0000a0 bd 0e b7 3d e1 78 45 3e 3b b5 0e bc 48 48 e7 3d
       0.08938358 0.19284393 -0.008710201 0.112930834
0000b0 71 a0 45 3e e9 d1 23 bc b8 65 a4 3e c5 61 1e 3e
       0.19299485 -0.009998777 0.32108855 0.15466984
0000c0 71 af 96 3d c9 28 85 3e df 5e 33 3e 5b c9 aa 3d
       0.073576815 0.2600768 0.17516659 0.08339187
0000d0 10 16 7a 3e fc 3c c9 3e ac 08 17 3e 9e 0d 74 3e
       0.24422479 0.3930434 0.14749402 0.2383332
0000e0 b9 e8 a4 3d b2 ad a8 3c cf 6c 21 3e 88 59 b2 3c
       0.08052201 0.020590637 0.15764163 0.021771207
0000f0 b0 a8 ae 3e 79 23 0f 3e 03 4c c6 3d ae a0 3f 3e
       0.34113073 0.13978375 0.09682467 0.18713638
000100 4b 5a af bd 67 c6 c7 bd 87 4f 48 3c 87 fd 39 be
       -0.08562144 -0.09754639 0.012225992 -0.1816312
000110 dd 5e dc bd 20 69 0b be 56 12 dc bd 4e e4 e9 3d
       -0.10760281 -0.13614321 -0.10745685 0.11420499
000120 31 97 b5 3d 52 d6 d0 bc 3b c3 5c be d2 36 0b be
       0.08866728 -0.02549282 -0.2155885 -0.13595131
000130 d8 d3 c5 bd 8b 67 fc bc b3 09 61 be 9d 85 00 3e
       -0.096595466 -0.030811092 -0.21976356 0.1255097
000140 0c fd 0c 3d e0 8d 31 be 32 8c 82 be 6d b9 d3 be
       0.03442101 -0.17339277 -0.25497586 -0.41352406
000150 e8 cc a8 be 03 f4 da 3d 1d aa 49 be ce ce 8d be
       -0.3296883 0.10691073 -0.196938 -0.27696842
000160 40 af 68 bd df 90 b8 3d 9d 02 0a 3c e5 98 4a be
       -0.056807756 0.09012007 0.008423475 -0.19784887
000170 71 52 32 3e f8 c3 24 bd 38 76 4a bc 79 cd 3f 3d
       0.17414261 -0.040225953 -0.012357287 0.046826813
000180 f1 29 16 3e 99 5b 58 be a6 2d 41 bd 77 e2 34 3e
       0.14664437 -0.21128692 -0.047162674 0.17664514
000190 66 be ee bd 4a 85 4a 3a 71 27 1d 3e 08 b5 c6 be
       -0.11657409 0.000772555 0.15347077 -0.3880999
0001a0 7c 94 1a bd 30 dd 1c bd 4b ff 7c 3c 7a bb a7 be
       -0.037739262 -0.03829688 0.015441726 -0.3276022
0001b0 d1 92 9d bd 64 20 80 bb f0 be 53 bd 08 20 be be
       -0.07694019 -0.0039101113 -0.051695764 -0.37133813
0001c0 91 f8 80 be 78 17 04 3e bc cd c0 bd 03 fe bd bc
       -0.2518964 0.12899578 -0.09414241 -0.023192411
0001d0 a6 0a 8f bc d9 fd b7 bc 42 96 6d be ed 59 0b 3d
       -0.017461132 -0.022459911 -0.2320185 0.034021307
0001e0 6f 6c 1e be bf 4c d7 bd 56 e9 8e be 96 1c c1 bd
       -0.15471052 -0.10512685 -0.27912396 -0.094292805
0001f0 24 29 c2 bd 92 47 3d be c8 29 9d bd 27 cd fe bc
       -0.09480503 -0.18484333 -0.07673985 -0.031103684
000200 93 32 ef bc 3c bf 0f be 7b 77 04 bb 06 e4 e8 bd
       -0.02919892 -0.14037794 -0.0020212817 -0.11371617
000210 c7 d0 03 3d 68 cc 96 bd fe 9e 5f bd 44 0a 34 3e
       0.032181527 -0.07363206 -0.054594986 0.17582041
000220 0c 8f a2 3d ac 06 77 3b fd 3e 19 3e eb df 53 bc
       0.0793744 0.0037693186 0.14965434 -0.012931804
000230 5b 10 3c 3d 6b b7 91 be 4b dd 39 be e2 db 67 bd
       0.045914035 -0.2846025 -0.18150823 -0.05660618
000240 97 0b a2 bd e9 b9 ae 3b 66 f1 64 3d 7b 20 e3 bc
       -0.07912367 0.005332221 0.055894278 -0.027725449
000250 45 61 0d bd 99 9a 1e be 09 cd d0 3d cd 9f 75 3e
       -0.03451659 -0.15488662 0.10195357 0.2398674
000260 94 8c 8b bd 1d 73 e5 bd f1 06 d0 3b 77 a8 b1 bb
       -0.068139225 -0.11203597 0.0063484837 -0.005421694
000270 48 b5 c4 bc 53 c5 15 be ac 3c ac bd 93 b5 d6 bd
       -0.024012223 -0.14626054 -0.0841001 -0.10483851
000280 15 0b 3c bd c3 b0 0c 3e 87 1b e9 bd 2e 06 fd 3d
       -0.045909006 0.13739304 -0.113822035 0.12354694
000290 1d 11 d7 3d 44 34 b9 3d ce 94 e1 bd 85 50 59 3d
       0.10501311 0.09043172 -0.1101471 0.053055305
0002a0 08 f4 19 3e ff b2 26 be 5e f9 48 3d 3b 5a 1a bd
       0.15034497 -0.16279219 0.04906594 -0.037683707
0002b0 e9 8d bd 3d a8 7b c0 3d bc 5f 0f 3d af c0 7c be
       0.09255583 0.093985856 0.03500341 -0.24682878
0002c0 67 71 6b bd aa 01 22 be c3 8d 0c 3d d8 a9 bf bd
       -0.057481196 -0.15820947 0.034314882 -0.09358567
0002d0 16 a2 77 bc 08 38 62 3d ef e1 04 be aa b6 02 be
       -0.015114328 0.055229217 -0.12976812 -0.12764993
0002e0 26 70 78 3d 56 24 a4 3c ff b9 c6 3d 33 c1 80 3d
       0.060653828 0.020036858 0.09703445 0.0628685
0002f0 47 bb cc bd 1c b3 e6 3d 64 be 0a 3d 93 b1 60 bd
       -0.09996658 0.11264631 0.033872977 -0.054856848
000300 32 12 61 3e 7f 2c fa 3e 79 57 8e 3d c0 a4 db 3d
       0.21979597 0.48862073 0.06950278 0.10724783
000310 c9 cc 23 3e a3 63 a2 3d eb 5c 9d 3d c6 97 2d 3e
       0.15996088 0.079291604 0.07683738 0.16952428
000320 ea bb 26 3e f6 24 11 3e ec af 0e bd 2c 24 02 bd
       0.16282621 0.14174256 -0.03483574 -0.031772777
000330 64 2f 98 3d 5e db 00 3e 3c 39 54 3e 0e a5 95 3e
       0.07430914 0.12583682 0.20724958 0.2922749
000340 08 2c b4 3d a5 5a 72 3d 17 78 35 3e c2 ef 2e 3e
       0.08797461 0.059168477 0.17721592 0.17083648
000350 4e e6 10 bb 22 e1 ed 3c e8 14 fb 3d b4 23 ec 3d
       -0.0022109929 0.029038016 0.12259847 0.11530247
000360 00 37 1c 3e 78 81 4b 3e f7 84 30 3e d6 61 34 3e
       0.15255356 0.19873607 0.17238222 0.17615446
000370 c1 4f 49 3e 23 15 fa 3d 5a 50 15 3e b9 66 88 3e
       0.1965933 0.12211063 0.14581433 0.2664087
000380 71 af 87 3e fe b0 81 3e 81 dd 67 bd 5c 7d 10 3e
       0.2650104 0.25330347 -0.056607727 0.14110321
000390 cd d2 53 3c 03 ef 9b 3e 0c 9c 9a bd 72 12 04 3e
       0.012928677 0.3045579 -0.07549295 0.12897661
0003a0 74 f8 99 3e 3f 23 e6 3c 74 b9 14 3d ff 61 2a 3e
       0.30072367 0.028092979 0.036309674 0.16638945
0003b0 c2 f7 6e 3e 13 ad 17 3d 41 2f bb 3e 4d 2a ef 3d
       0.233367 0.03703029 0.3655949 0.1167799
0003c0 11 8b 20 3e 99 5c 06 3e 1f 2d 86 3e f1 8a 27 3e
       0.1567805 0.1312126 0.262063 0.16361596
0003d0 06 4f a0 3e 36 87 ef 3e e2 c2 0b 3d ef 02 d3 ba
       0.3131029 0.46782845 0.0341214 -0.0016098897
0003e0 fb 6e e2 3d 59 e5 54 3e 80 cf 91 3e 62 78 01 bd
       0.11056324 0.20790614 0.28478622 -0.031608947
0003f0 a8 9d 35 3e 37 68 00 3e 85 4d e4 bc a7 08 2a 3e
       0.17735922 0.12539755 -0.027868995 0.16604863

rnn.weight_ih_l0_reverse f4 [256, 37]
000000 85 64 9c 3d 0f 50 02 bd 6c 4e ab 3d 96 0e 45 bd
       0.0763636 -0.03181463 0.08364567 -0.048109613
000010 d3 ad 00 be d5 4b 04 be 29 2a 85 bc 88 35 b3 bd
       -0.12566309 -0.12919553 -0.016255455 -0.08750445
000020 ed bf 46 be 43 e5 ce be ea 5b 25 be 03 42 b1 bb
       -0.19409151 -0.40409288 -0.16148344 -0.0054094805
000030 21 33 c8 3d 47 fe 1d be 8c 5c ef 3d 8d 4c 69 bd
       0.09775377 -0.1542903 0.11687574 -0.05695777
000040 43 c7 85 3e 6b a5 1c be 6d 91 07 be 95 16 b9 bd
       0.26128587 -0.15297477 -0.1323907 -0.0903751
000050 6c 43 08 3d 99 26 cc 3d c6 63 db bd 73 76 42 3e
       0.033267424 0.099682994 -0.1071239 0.18990497
000060 2b 94 54 3d 95 b1 5a 3d b9 d9 82 bd a3 d7 fd 3d
       0.051899116 0.05339201 -0.063891836 0.12394645
000070 26 56 0c be 11 cc 19 3e eb 18 52 be a0 10 7d be
       -0.13704738 0.15019251 -0.20517318 -0.24713373
000080 cd 7e 8f be 4f b9 77 3e a2 d9 08 3e 80 a7 61 bf
       -0.2802643 0.24191783 0.1336427 -0.8814621
000090 a8 32 ab bf af 30 8d be 50 93 8c 3e 8a 76 48 be
       -1.3374834 -0.27576205 0.2745614 -0.19576469
0000a0 11 a3 7f be 29 86 9c bd 2f 44 34 3d 54 6a 9d be
       -0.24964549 -0.076427765 0.044010337 -0.30745184
0000b0 33 72 9e bd d2 c6 8a 3d 95 a6 5c 3d 5c bc 66 3e
       -0.077366255 0.06776203 0.053869803 0.22532791
0000c0 8d f3 e1 be 4a d2 98 bc d0 41 2c 3e 26 be 3d 3d
       -0.44131127 -0.018654961 0.1682198 0.046323918
0000d0 d7 67 81 39 be 21 06 3e 2a 15 6e be e3 bf a3 3d
       0.00024682164 0.13098809 -0.23250261 0.07995584
0000e0 e3 8e 4f be a9 17 86 be b4 be 17 bd 32 ba 19 ba
       -0.2026935 -0.26189926 -0.037047103 -0.0005864232
0000f0 85 da a9 bd c7 08 4b 3e 90 4f 0b 3e 31 3d 48 be
       -0.082936324 0.19827567 0.1360457 -0.19554593
000100 b3 d7 bc 3d a6 f8 7d be 52 2b a3 bd e5 db 3e be
       0.09220829 -0.24801883 -0.07967247 -0.1863857
000110 f7 2c 96 3e c3 49 63 3e 82 8b ea bd ed 9f d4 be
       0.2933118 0.22196107 -0.1145239 -0.41528264
000120 64 fa b3 3e b8 ae 91 3f a7 7b e5 bc 06 fa b2 bc
       0.3515197 1.1381445 -0.028013064 -0.021847736
000130 85 7d 92 3c db 5c 63 3e 4b 7b 9e bd bc 24 de 3d
       0.017882118 0.2220339 -0.0773836 0.1084685
000140 70 4a 88 bc 6f f5 07 3e 95 ee b0 3d 8d e3 c7 bd
       -0.016637057 0.13277219 0.08639256 -0.09760199
000150 43 f7 9d 3d b8 d6 07 3e f1 a2 07 3d 33 88 ad 3d
       0.07713177 0.13265502 0.033114377 0.084732436
000160 cf 72 0d bd 12 b4 22 3e 14 d9 93 3d 48 7f 63 3d
       -0.034533318 0.15889004 0.07219139 0.055541307
000170 67 1c 7f 3e dc 21 fd 3d 4f 32 a8 3b 11 a7 81 3d
       0.24913178 0.12359974 0.0051329504 0.063306935
000180 81 e4 ee bc 59 41 66 3d c9 4b 27 3e aa 8a d2 3d
       -0.029161694 0.056214664 0.16337503 0.10280354
000190 b6 d4 82 3d 71 9b 56 3e 60 f6 a8 3d df 00 5c 3d
       0.06388228 0.20957734 0.08250117 0.05371177
0001a0 44 81 5c bd f2 88 7b 3e 10 02 51 3f 22 14 91 3f
       -0.053834215 0.24563959 0.8164377 1.1334269
0001b0 d8 14 6a 3f 92 78 56 3e dc 50 86 3f 4b 88 da bd
       0.91438055 0.20944431 1.0493426 -0.10670527
0001c0 bc 11 b5 3e be ff e2 be 97 64 e4 be bc d2 b0 bc
       0.35365093 -0.4433574 -0.44607994 -0.021584861
0001d0 24 bf 2e be 55 2c b1 be 95 47 3a 3e f9 57 d7 3d
       -0.17065102 -0.34604135 0.18191369 0.10514826
0001e0 6b 09 e6 be bf cc 17 bc db c8 16 bf 4e d4 00 3e
       -0.4492906 -0.009265124 -0.5890023 0.12580988
0001f0 4b a2 5a bf c9 54 65 3e 45 6e d0 3d 09 f6 4f 3f
       -0.8540389 0.22395624 0.10177282 0.81234795
000200 0b 11 42 bf fa 0f 0d bf a8 dc 60 be 1c ff 10 bf
       -0.75807256 -0.55102503 -0.21959174 -0.56639266
000210 7b 32 84 3e b7 bf 0b be 1d 0f fa 3e 26 e5 2d 3e
       0.25819764 -0.13647352 0.48839656 0.16981944
000220 e3 f7 99 3c 7f 95 14 3f ec 3b 4b 3e f9 d3 4f 3d
       0.01879496 0.5804061 0.19847077 0.050739262
000230 91 bc bc 3e ec 5f 55 be e7 d4 42 3f 6c 71 44 3e
       0.36862615 -0.20837373 0.76106113 0.19183892
000240 31 43 f1 bd 29 70 2f bf 2a 8c ea be a1 1b ea 3d
       -0.11780394 -0.6853052 -0.45810062 0.11431051
000250 1a 11 c8 3d c5 8e 74 3e 7c 28 93 3e a4 e6 52 3e
       0.09768887 0.23882587 0.28741825 0.20595795
000260 eb 2f 1a 3e b8 5d b1 bd 7f 28 a5 3d f9 6b fc 3d
       0.15057342 -0.086604536 0.08064365 0.12325282
000270 0d f8 e0 bc 6c e1 1d 3e 14 95 78 3d ca 9a b0 bd
       -0.02746203 0.15418023 0.060689047 -0.08623274
000280 a2 9d 8a be ab fb 21 3e 06 1f 91 be 5a a5 81 3e
       -0.2707339 0.1581866 -0.28343982 0.25321466
000290 1d 86 5d be 0a a2 a8 bd 8f 48 38 3d c1 b3 5c 3d
       -0.21633191 -0.082340315 0.044991072 0.053882364
0002a0 21 04 8f 3e 51 f9 a1 be eb 90 a0 3e ed 04 a2 bd
       0.27932838 -0.31635526 0.31360564 -0.07911096
0002b0 78 80 b3 bd 3a a1 ba bd 5c b1 72 3d db 62 2d be
       -0.08764738 -0.09112783 0.059251174 -0.16932242
0002c0 9f d3 09 3e ab 45 a9 3e c1 e7 11 bc 87 68 de 3b
       0.13459633 0.33060965 -0.008905352 0.006787363
0002d0 7f 93 43 bf 95 2a 96 3e 1e 63 04 3f b0 ec 01 3f
       -0.76396936 0.29329363 0.5171374 0.5075178
0002e0 60 2f a3 3f f4 cf 48 be 7a c3 83 be 72 91 65 3e
       1.2748833 -0.19610578 -0.25735074 0.22418764
0002f0 dc a6 02 3e 02 06 92 be e7 94 b4 be d6 a3 da 3e
       0.12758964 -0.2852021 -0.35269853 0.42703122
000300 53 87 40 3e 6f aa 06 3e 65 68 6a 3e 75 93 02 3e
       0.18801622 0.13150953 0.22891386 0.12751563
000310 26 b8 3c 3e 74 0b 05 be 7e 8e f7 3e 0d 1a 01 be
       0.18429622 -0.1299265 0.483509 -0.12607594
000320 76 80 97 3e 69 68 4b be b7 e4 0d 3f cd d5 9e bd
       0.29590195 -0.19864048 0.55427116 -0.07755623
000330 2d 4c 91 bb 06 e0 cf 3d dc e2 72 3e ed b8 b1 bd
       -0.0044341297 0.10150151 0.23719352 -0.0867785
000340 cf af 8a be 60 80 f4 bd 0e d0 98 bd 14 0b bc 3d
       -0.27087256 -0.11938548 -0.07461558 0.091818005
000350 47 b1 64 be 9b 0b 0c be 2b 56 8c 3d 5d 11 70 3e
       -0.22333251 -0.13676302 0.06852373 0.23444124
000360 b6 47 d1 bd da 0b 21 bf c6 39 30 3e dc 2e 7b 3e
       -0.10218756 -0.6290871 0.17209539 0.24529594
000370 53 db 43 bf af 8d e6 be fc e7 8a bd 9a e2 15 be
       -0.7650654 -0.4502997 -0.06782529 -0.14637223
000380 3d 91 d3 bd 4a be c5 3d 49 57 7c 3e 01 b1 29 be
       -0.103304364 0.096554354 0.24642672 -0.16571428
000390 25 c9 b0 3c 2e 9a 7a be 64 c3 b7 bd 33 72 80 3d
       0.021580288 -0.24472877 -0.08972815 0.06271782
0003a0 52 82 82 3c 74 6f 8d be 6f eb 7a bd 29 aa ba bd
       0.015931282 -0.27624094 -0.061259683 -0.09114487
0003b0 56 d5 0a bd 6e 11 50 bc ca 6d 31 be b4 90 75 bb
       -0.03389486 -0.012699468 -0.17327037 -0.0037470283
0003c0 96 39 0e 3e 51 5f 42 3e d0 4e 97 3c da 44 6b 3d
       0.13889155 0.18981673 0.018470198 0.05743871
0003d0 59 55 ef 3d d6 70 11 3c f6 9f 0d be e1 9d 5c be
       0.11686201 0.008877 -0.13830552 -0.21544601
0003e0 74 46 b5 3d 33 e8 ba bd 3f 8f 3a 3c fe 24 a9 3d
       0.088513285 -0.0912632 0.011386692 0.08259009
0003f0 fd 0c 44 3d 2c 75 ec bd 67 63 7b bd 3b 1f 1f bf
       0.04786395 -0.11545786 -0.061374094 -0.6215703

rnn.weight_hh_l0_reverse f4 [256, 64]
000000 04 f9 fa 3d 07 3a 11 3f 33 4b 1b 3e 0d 79 c5 bc
       0.12254527 0.5672917 0.15165405 -0.024105573
000010 40 ac 27 be 8c 33 76 be 4e 63 04 3d fe e7 7c 3e
       -0.16374302 -0.24043101 0.032321267 0.24697873
000020 35 3d 14 3e 25 32 12 be 66 da e0 3d 09 25 03 3c
       0.14476474 -0.14276941 0.10979156 0.008004435
000030 b8 aa 81 be d9 5b b8 3e d8 24 d3 3b d1 ab 62 3e
       -0.2532556 0.36007574 0.006443601 0.22135855
000040 03 52 b6 bd c9 d2 94 be 01 d0 d3 3d 98 04 77 3e
       -0.08902361 -0.29067066 0.10342408 0.24122846
000050 5b 57 4f 3e 11 34 e3 bd 25 37 64 bd 61 b6 25 3d
       0.20248167 -0.11093915 -0.055716652 0.040457133
000060 02 6a 6a 3e 5a 79 7b 3d a2 38 4f 3d 7b d8 9b 3e
       0.22892001 0.061395027 0.05059112 0.304386
000070 46 3e 18 3d ff 98 3b 3d 4d 4d 29 3e 25 ea 84 bd
       0.037168764 0.045800205 0.16533394 -0.06489972
000080 e2 92 84 bd 6a 31 32 3e cd 0d 44 3e 05 c8 d6 bd
       -0.06473328 0.17401662 0.1914589 -0.104873694
000090 e7 4d 7e bd 49 74 1d 3e a5 74 69 3d d6 83 33 bd
       -0.062086012 0.1537639 0.056996007 -0.0438269
0000a0 db 10 31 bd 69 ca 8a 3d 91 e6 2b 3d 2f 2b d9 bd
       -0.043228965 0.06776888 0.041967932 -0.1060394
0000b0 45 a5 71 be 9b d7 f5 3d 7f f4 71 bc 85 13 78 bd
       -0.23598202 0.12004014 -0.014767765 -0.06056549
0000c0 e4 ba f9 3e 25 fd 2f 3e 96 b1 39 3c 64 9c 7a 3d
       0.487754 0.1718641 0.011333844 0.061184302
0000d0 ec a6 27 3c 1e 28 99 3d d4 3b 97 bd 1b b2 19 be
       0.010232668 0.07478355 -0.07384458 -0.15009348
0000e0 d9 25 49 3e 6f 9f 98 3e da 13 04 3e 6a cc cf bd
       0.19643344 0.29809138 0.12898198 -0.10146411
0000f0 d7 f7 a6 bd f9 ed 9b be 45 9c 9c bd af 60 80 be
       -0.081527404 -0.30454996 -0.076469935 -0.25073764
000100 17 74 e2 3d ff 3c 9d 3e 1a 11 9b 3b 76 bc a0 3d
       0.11057299 0.307106 0.0047322633 0.07848446
000110 8d 98 2a bd f8 0e 01 be 41 85 00 3e 16 d4 83 bd
       -0.04164939 -0.12603366 0.12550832 -0.064369366
000120 79 48 0c be c9 47 1c be 2b 9a 71 3e e5 39 47 3d
       -0.13699521 -0.15261759 0.23593967 0.048639197
000130 82 49 18 3d c1 36 49 3d ba 4f 55 bd 3d 11 da bd
       0.037179478 0.049124483 -0.052077986 -0.10647819
000140 c0 d2 06 be 26 68 6b be f1 dd 10 3e 7c 0b 9b 3e
       -0.13166332 -0.22988948 0.14147164 0.302822
000150 56 28 7f ba cd aa be bd a5 69 cc bc c3 27 9c be
       -0.00097334886 -0.093099214 -0.024952719 -0.30499086
000160 54 ea 8a be 12 bb 6e 3e f8 38 a2 3b 04 8d 6b 3e
       -0.27131903 0.23313549 0.004950639 0.23003012
000170 53 5f c6 3d b5 ed 43 36 0e 22 79 3e 46 5c 3c 3e
       0.096861504 2.9195628e-06 0.24329397 0.18394575
000180 72 f4 91 bd b6 69 b1 be 55 50 54 be 9e 3f 8d bc
       -0.07126702 -0.34650964 -0.20733769 -0.01724225
000190 b3 81 e4 3d c5 3f 35 be e0 de 23 bc 1c 18 f4 bd
       0.11157551 -0.17700107 -0.010001868 -0.11918661
0001a0 d4 34 7f bd 79 4f 2d 3e fb 4f 44 bc 95 2e ea 3d
       -0.06230624 0.16924848 -0.011981959 0.11434666
0001b0 49 7c 63 3e 7c 1c 7a bd ba 2b 55 3d 00 93 31 be
       0.2221538 -0.06106232 0.052043654 -0.17341232
0001c0 31 ec 02 3e f3 fc 6a bd 61 bc 5c 3d 7f fd 08 3e
       0.12785412 -0.057370137 0.05389059 0.13377951
0001d0 bb 85 73 3e 49 28 10 3e 68 0e 9e be ee fc 85 bd
       0.23781483 0.14077868 -0.30870366 -0.06542383
0001e0 be cb 1e be 09 27 a4 be 6f f2 c8 3d 0c a5 68 3e
       -0.15507409 -0.3206103 0.098118655 0.2271921
0001f0 85 bb 45 3d a8 33 85 bd 04 17 01 3f ce b4 98 3d
       0.048274536 -0.06503993 0.50425744 0.07456361
000200 a0 71 fe 3c f9 f9 42 3e a0 d6 06 3e cf e7 4d be
       0.03106004 0.1904067 0.1316781 -0.20107959
000210 d5 e8 ec bd fc 8f 5b 3d 60 cb b9 3e 21 13 83 3e
       -0.11567847 0.05360411 0.36287975 0.25600532
000220 ae 6e 06 3e f7 9a 99 be 45 08 bb bc 9c e1 07 be
       0.13128158 -0.3000104 -0.022831092 -0.13269657
000230 34 94 04 be 40 9a 62 3e 1a ad f8 3d fe 91 fd 3d
       -0.1294716 0.22129154 0.121423915 0.123813614
000240 0d a5 0c be 5d a9 25 bd 42 46 97 3d 59 2c ad 3d
       -0.13734837 -0.04044472 0.073864475 0.08455724
000250 a0 08 88 3d 1f 6a 66 bd a7 3e da 3a 68 6a 05 3e
       0.0664227 -0.05625355 0.0016650752 0.13028872
000260 fe 29 73 3e 25 11 cd bd 98 6a cd 3d e1 1a b4 3e
       0.23746487 -0.10013036 0.10030097 0.35176757
000270 7c d6 35 3d 1a e1 3e 3e 92 78 e7 3c a2 b5 20 bd
       0.044394 0.18640557 0.028255735 -0.03923572
000280 b7 32 e5 3c 45 35 da 3d 51 b5 0f 3e d9 a3 ee bd
       0.027978284 0.106546916 0.1403401 -0.11652345
000290 5b 0b 09 3d 8c a7 9d 3c 6a 06 73 3d 92 5d 23 bd
       0.033458095 0.019244932 0.05933229 -0.039884157
0002a0 65 a4 d5 bd 2f 7c f0 bc ee 99 23 3e 0a d9 1f be
       -0.104317464 -0.02935609 0.15976688 -0.15610138
0002b0 cc a1 af be 0b 20 ec bd 65 a6 42 be 37 8b 8b 3d
       -0.3430313 -0.11529549 -0.19008787 0.068136625
0002c0 af 9f 89 3e 1c 43 fa bd af 4d 07 be ed 04 7b 3d
       0.2687964 -0.12219831 -0.13213228 0.061283994
0002d0 64 8a 0b bd a6 4c 5f be 51 47 2a bd fb 62 87 3e
       -0.034067526 -0.21806583 -0.04157192 0.26442704
0002e0 c7 9f 4b be e7 9a e8 3d eb 76 97 3e af 11 9c 3d
       -0.19885169 0.1135767 0.29582915 0.076205604
0002f0 61 8b 54 bd ee 13 70 bd 6f d5 d1 bd 2c a1 53 be
       -0.051890735 -0.058612756 -0.10245787 -0.20666951
000300 35 79 09 3d 4a 4a 14 3e 43 57 94 bd 7a 34 ce 3e
       0.033562858 0.14481464 -0.07243206 0.4027441
000310 26 16 9c be 41 61 39 3c 5e a8 6e 3e f9 b6 4b 3e
       -0.30485648 0.011314691 0.23306414 0.19894017
000320 c9 1a a5 be 50 d4 01 3e c2 cf 23 be 16 e7 8b be
       -0.32246998 0.12678647 -0.15997222 -0.27324742
000330 ab 6f d1 bd 6a 54 96 be 9d d4 e1 3e 9d 28 4d bd
       -0.10226377 -0.29361278 0.44107524 -0.05008756
000340 18 09 91 bc 70 05 83 be c8 bf 4a 3e f5 de 8f bd
       -0.017704532 -0.25590086 0.19799721 -0.070249476
000350 c6 ec 8a 3e 83 fb 45 be 8e 00 5e 3d d9 e9 8c 3e
       0.2713377 -0.19334225 0.054199748 0.27522162
000360 87 4e 4e 3e ad 43 7c be e5 4e 94 bd d4 d8 38 3e
       0.20147143 -0.24635191 -0.072416104 0.18051463
000370 4d b3 aa 3d 4c cf 07 3e f4 eb 0e 3e 88 20 46 3e
       0.0833498 0.13262671 0.13957196 0.19348347
000380 23 9d 33 bd f5 b4 03 3e 72 6a 41 3e fd 60 95 be
       -0.04385103 0.12861998 0.18888262 -0.2917556
000390 57 f6 8a be a2 de ad 3d fe b2 5a 3d 09 f9 07 be
       -0.27141067 0.084897295 0.053393357 -0.13278593
0003a0 8d 73 22 be 3e 0e cb 3e 08 60 89 3e bc 92 af be
       -0.15864392 0.39659303 0.2683108 -0.34291637
0003b0 cf b5 af bd 14 0e 35 bd 5f 5a 46 3d cd 81 87 3e
       -0.08579599 -0.04420288 0.04842603 0.26466218
0003c0 df 93 53 be 13 82 31 be 5c 54 5c be 70 ae 34 3e
       -0.20661877 -0.17334776 -0.21516556 0.17644668
0003d0 7c eb a8 be 91 fb 3f be 38 a3 1b be 21 3b ab bd
       -0.3299216 -0.18748309 -0.15198982 -0.08360887
0003e0 9d 31 17 be c3 0f 44 bc 96 06 32 3e be d4 1c be
       -0.1476502 -0.0119666485 0.17385325 -0.1531553
0003f0 87 73 1e bc f0 74 9e 3d 2c 00 c2 3d 50 e9 14 3d
       -0.009671099 0.07737148 0.09472689 0.036355317
